…
[2023-09-20 14:52:20 4splitDomains](iBatchLearn.py 233): INFO {"cfg": "../official_eva/configs/4splitDomains.yaml", "user_cfg": "utils/user_4splitDomains.yaml", "test": true, "task_count": 0, "init_path": "input/init_models/4splitDomains.pth", "ckpt_path": "model_info/4splitDomains/checkpoint-0.pth", "save_ckpt_path": null, "storage_path": null, "save_storage_path": null, "dest_path": "outputs/2023-09-20-14:52:16/prediction_0.pkl", "suffix": "2023-09-20-14:52:16", "distributed": false, "is_main_process": true}
[2023-09-20 14:52:20 4splitDomains](mytrainer.py 46): INFO => Load model weights: model_info/4splitDomains/checkpoint-0.pth
[2023-09-20 14:52:22 4splitDomains](mytrainer.py 48): INFO => Load Done
[2023-09-20 14:52:26 4splitDomains](iBatchLearn.py 57): INFO ModelSPG(
  (feature_extractor): IncreResNet(
    (conv1): SPG(
      (target_module): Conv2d(3, 64, kernel_size=(7, 7), stride=(2, 2), padding=(3, 3), bias=False)
    )
    (bn1): BatchNorm2d(64, eps=1e-05, momentum=0.1, affine=True, track_running_stats=True)
    (relu): ReLU(inplace=True)
    (maxpool): MaxPool2d(kernel_size=3, stride=2, padding=1, dilation=1, ceil_mode=False)
    (layer1): Sequential(
      (0): Bottleneck(
        (conv1): Conv2d(64, 64, kernel_size=(1, 1), stride=(1, 1), bias=False)
        (bn1): BatchNorm2d(64, eps=1e-05, momentum=0.1, affine=True, track_running_stats=True)
        (conv2): Conv2d(64, 64, kernel_size=(3, 3), stride=(1, 1), padding=(1, 1), bias=False)
        (bn2): BatchNorm2d(64, eps=1e-05, momentum=0.1, affine=True, track_running_stats=True)
        (conv3): Conv2d(64, 256, kernel_size=(1, 1), stride=(1, 1), bias=False)
        (bn3): BatchNorm2d(256, eps=1e-05, momentum=0.1, affine=True, track_running_stats=True)
        (relu): ReLU(inplace=True)
        (downsample): Sequential(
          (0): Conv2d(64, 256, kernel_size=(1, 1), stride=(1, 1), bias=False)
          (1): BatchNorm2d(256, eps=1e-05, momentum=0.1, affine=True, track_running_stats=True)
        )
      )
      (1): Bottleneck(
        (conv1): Conv2d(256, 64, kernel_size=(1, 1), stride=(1, 1), bias=False)
        (bn1): BatchNorm2d(64, eps=1e-05, momentum=0.1, affine=True, track_running_stats=True)
        (conv2): Conv2d(64, 64, kernel_size=(3, 3), stride=(1, 1), padding=(1, 1), bias=False)
        (bn2): BatchNorm2d(64, eps=1e-05, momentum=0.1, affine=True, track_running_stats=True)
        (conv3): Conv2d(64, 256, kernel_size=(1, 1), stride=(1, 1), bias=False)
        (bn3): BatchNorm2d(256, eps=1e-05, momentum=0.1, affine=True, track_running_stats=True)
        (relu): ReLU(inplace=True)
      )
      (2): Bottleneck(
        (conv1): Conv2d(256, 64, kernel_size=(1, 1), stride=(1, 1), bias=False)
        (bn1): BatchNorm2d(64, eps=1e-05, momentum=0.1, affine=True, track_running_stats=True)
        (conv2): Conv2d(64, 64, kernel_size=(3, 3), stride=(1, 1), padding=(1, 1), bias=False)
        (bn2): BatchNorm2d(64, eps=1e-05, momentum=0.1, affine=True, track_running_stats=True)
        (conv3): Conv2d(64, 256, kernel_size=(1, 1), stride=(1, 1), bias=False)
        (bn3): BatchNorm2d(256, eps=1e-05, momentum=0.1, affine=True, track_running_stats=True)
        (relu): ReLU(inplace=True)
      )
    )
    (layer2): Sequential(
      (0): Bottleneck(
        (conv1): Conv2d(256, 128, kernel_size=(1, 1), stride=(1, 1), bias=False)
        (bn1): BatchNorm2d(128, eps=1e-05, momentum=0.1, affine=True, track_running_stats=True)
        (conv2): Conv2d(128, 128, kernel_size=(3, 3), stride=(2, 2), padding=(1, 1), bias=False)
        (bn2): BatchNorm2d(128, eps=1e-05, momentum=0.1, affine=True, track_running_stats=True)
        (conv3): Conv2d(128, 512, kernel_size=(1, 1), stride=(1, 1), bias=False)
        (bn3): BatchNorm2d(512, eps=1e-05, momentum=0.1, affine=True, track_running_stats=True)
        (relu): ReLU(inplace=True)
        (downsample): Sequential(
          (0): Conv2d(256, 512, kernel_size=(1, 1), stride=(2, 2), bias=False)
          (1): BatchNorm2d(512, eps=1e-05, momentum=0.1, affine=True, track_running_stats=True)
        )
      )
      (1): Bottleneck(
        (conv1): Conv2d(512, 128, kernel_size=(1, 1), stride=(1, 1), bias=False)
        (bn1): BatchNorm2d(128, eps=1e-05, momentum=0.1, affine=True, track_running_stats=True)
        (conv2): Conv2d(128, 128, kernel_size=(3, 3), stride=(1, 1), padding=(1, 1), bias=False)
        (bn2): BatchNorm2d(128, eps=1e-05, momentum=0.1, affine=True, track_running_stats=True)
        (conv3): Conv2d(128, 512, kernel_size=(1, 1), stride=(1, 1), bias=False)
        (bn3): BatchNorm2d(512, eps=1e-05, momentum=0.1, affine=True, track_running_stats=True)
        (relu): ReLU(inplace=True)
      )
      (2): Bottleneck(
        (conv1): Conv2d(512, 128, kernel_size=(1, 1), stride=(1, 1), bias=False)
        (bn1): BatchNorm2d(128, eps=1e-05, momentum=0.1, affine=True, track_running_stats=True)
        (conv2): Conv2d(128, 128, kernel_size=(3, 3), stride=(1, 1), padding=(1, 1), bias=False)
        (bn2): BatchNorm2d(128, eps=1e-05, momentum=0.1, affine=True, track_running_stats=True)
        (conv3): Conv2d(128, 512, kernel_size=(1, 1), stride=(1, 1), bias=False)
        (bn3): BatchNorm2d(512, eps=1e-05, momentum=0.1, affine=True, track_running_stats=True)
        (relu): ReLU(inplace=True)
      )
      (3): Bottleneck(
        (conv1): Conv2d(512, 128, kernel_size=(1, 1), stride=(1, 1), bias=False)
        (bn1): BatchNorm2d(128, eps=1e-05, momentum=0.1, affine=True, track_running_stats=True)
        (conv2): Conv2d(128, 128, kernel_size=(3, 3), stride=(1, 1), padding=(1, 1), bias=False)
        (bn2): BatchNorm2d(128, eps=1e-05, momentum=0.1, affine=True, track_running_stats=True)
        (conv3): Conv2d(128, 512, kernel_size=(1, 1), stride=(1, 1), bias=False)
        (bn3): BatchNorm2d(512, eps=1e-05, momentum=0.1, affine=True, track_running_stats=True)
        (relu): ReLU(inplace=True)
      )
    )
    (layer3): Sequential(
      (0): Bottleneck(
        (conv1): Conv2d(512, 256, kernel_size=(1, 1), stride=(1, 1), bias=False)
        (bn1): BatchNorm2d(256, eps=1e-05, momentum=0.1, affine=True, track_running_stats=True)
        (conv2): Conv2d(256, 256, kernel_size=(3, 3), stride=(2, 2), padding=(1, 1), bias=False)
        (bn2): BatchNorm2d(256, eps=1e-05, momentum=0.1, affine=True, track_running_stats=True)
        (conv3): Conv2d(256, 1024, kernel_size=(1, 1), stride=(1, 1), bias=False)
        (bn3): BatchNorm2d(1024, eps=1e-05, momentum=0.1, affine=True, track_running_stats=True)
        (relu): ReLU(inplace=True)
        (downsample): Sequential(
          (0): Conv2d(512, 1024, kernel_size=(1, 1), stride=(2, 2), bias=False)
          (1): BatchNorm2d(1024, eps=1e-05, momentum=0.1, affine=True, track_running_stats=True)
        )
      )
      (1): Bottleneck(
        (conv1): Conv2d(1024, 256, kernel_size=(1, 1), stride=(1, 1), bias=False)
        (bn1): BatchNorm2d(256, eps=1e-05, momentum=0.1, affine=True, track_running_stats=True)
        (conv2): Conv2d(256, 256, kernel_size=(3, 3), stride=(1, 1), padding=(1, 1), bias=False)
        (bn2): BatchNorm2d(256, eps=1e-05, momentum=0.1, affine=True, track_running_stats=True)
        (conv3): Conv2d(256, 1024, kernel_size=(1, 1), stride=(1, 1), bias=False)
        (bn3): BatchNorm2d(1024, eps=1e-05, momentum=0.1, affine=True, track_running_stats=True)
        (relu): ReLU(inplace=True)
      )
      (2): Bottleneck(
        (conv1): Conv2d(1024, 256, kernel_size=(1, 1), stride=(1, 1), bias=False)
        (bn1): BatchNorm2d(256, eps=1e-05, momentum=0.1, affine=True, track_running_stats=True)
        (conv2): Conv2d(256, 256, kernel_size=(3, 3), stride=(1, 1), padding=(1, 1), bias=False)
        (bn2): BatchNorm2d(256, eps=1e-05, momentum=0.1, affine=True, track_running_stats=True)
        (conv3): Conv2d(256, 1024, kernel_size=(1, 1), stride=(1, 1), bias=False)
        (bn3): BatchNorm2d(1024, eps=1e-05, momentum=0.1, affine=True, track_running_stats=True)
        (relu): ReLU(inplace=True)
      )
      (3): Bottleneck(
        (conv1): Conv2d(1024, 256, kernel_size=(1, 1), stride=(1, 1), bias=False)
        (bn1): BatchNorm2d(256, eps=1e-05, momentum=0.1, affine=True, track_running_stats=True)
        (conv2): Conv2d(256, 256, kernel_size=(3, 3), stride=(1, 1), padding=(1, 1), bias=False)
        (bn2): BatchNorm2d(256, eps=1e-05, momentum=0.1, affine=True, track_running_stats=True)
        (conv3): Conv2d(256, 1024, kernel_size=(1, 1), stride=(1, 1), bias=False)
        (bn3): BatchNorm2d(1024, eps=1e-05, momentum=0.1, affine=True, track_running_stats=True)
        (relu): ReLU(inplace=True)
      )
      (4): Bottleneck(
        (conv1): Conv2d(1024, 256, kernel_size=(1, 1), stride=(1, 1), bias=False)
        (bn1): BatchNorm2d(256, eps=1e-05, momentum=0.1, affine=True, track_running_stats=True)
        (conv2): Conv2d(256, 256, kernel_size=(3, 3), stride=(1, 1), padding=(1, 1), bias=False)
        (bn2): BatchNorm2d(256, eps=1e-05, momentum=0.1, affine=True, track_running_stats=True)
        (conv3): Conv2d(256, 1024, kernel_size=(1, 1), stride=(1, 1), bias=False)
        (bn3): BatchNorm2d(1024, eps=1e-05, momentum=0.1, affine=True, track_running_stats=True)
        (relu): ReLU(inplace=True)
      )
      (5): Bottleneck(
        (conv1): Conv2d(1024, 256, kernel_size=(1, 1), stride=(1, 1), bias=False)
        (bn1): BatchNorm2d(256, eps=1e-05, momentum=0.1, affine=True, track_running_stats=True)
        (conv2): Conv2d(256, 256, kernel_size=(3, 3), stride=(1, 1), padding=(1, 1), bias=False)
        (bn2): BatchNorm2d(256, eps=1e-05, momentum=0.1, affine=True, track_running_stats=True)
        (conv3): Conv2d(256, 1024, kernel_size=(1, 1), stride=(1, 1), bias=False)
        (bn3): BatchNorm2d(1024, eps=1e-05, momentum=0.1, affine=True, track_running_stats=True)
        (relu): ReLU(inplace=True)
      )
    )
    (layer4): Sequential(
      (0): Bottleneck(
        (conv1): Conv2d(1024, 512, kernel_size=(1, 1), stride=(1, 1), bias=False)
        (bn1): BatchNorm2d(512, eps=1e-05, momentum=0.1, affine=True, track_running_stats=True)
        (conv2): Conv2d(512, 512, kernel_size=(3, 3), stride=(2, 2), padding=(1, 1), bias=False)
        (bn2): BatchNorm2d(512, eps=1e-05, momentum=0.1, affine=True, track_running_stats=True)
        (conv3): Conv2d(512, 2048, kernel_size=(1, 1), stride=(1, 1), bias=False)
        (bn3): BatchNorm2d(2048, eps=1e-05, momentum=0.1, affine=True, track_running_stats=True)
        (relu): ReLU(inplace=True)
        (downsample): Sequential(
          (0): Conv2d(1024, 2048, kernel_size=(1, 1), stride=(2, 2), bias=False)
          (1): BatchNorm2d(2048, eps=1e-05, momentum=0.1, affine=True, track_running_stats=True)
        )
      )
      (1): Bottleneck(
        (conv1): Conv2d(2048, 512, kernel_size=(1, 1), stride=(1, 1), bias=False)
        (bn1): BatchNorm2d(512, eps=1e-05, momentum=0.1, affine=True, track_running_stats=True)
        (conv2): Conv2d(512, 512, kernel_size=(3, 3), stride=(1, 1), padding=(1, 1), bias=False)
        (bn2): BatchNorm2d(512, eps=1e-05, momentum=0.1, affine=True, track_running_stats=True)
        (conv3): Conv2d(512, 2048, kernel_size=(1, 1), stride=(1, 1), bias=False)
        (bn3): BatchNorm2d(2048, eps=1e-05, momentum=0.1, affine=True, track_running_stats=True)
        (relu): ReLU(inplace=True)
      )
      (2): Bottleneck(
        (conv1): Conv2d(2048, 512, kernel_size=(1, 1), stride=(1, 1), bias=False)
        (bn1): BatchNorm2d(512, eps=1e-05, momentum=0.1, affine=True, track_running_stats=True)
        (conv2): Conv2d(512, 512, kernel_size=(3, 3), stride=(1, 1), padding=(1, 1), bias=False)
        (bn2): BatchNorm2d(512, eps=1e-05, momentum=0.1, affine=True, track_running_stats=True)
        (conv3): Conv2d(512, 2048, kernel_size=(1, 1), stride=(1, 1), bias=False)
        (bn3): BatchNorm2d(2048, eps=1e-05, momentum=0.1, affine=True, track_running_stats=True)
        (relu): ReLU(inplace=True)
      )
    )
    (avgpool): AdaptiveAvgPool2d(output_size=(1, 1))
    (layer1.0.conv1): SPG(
      (target_module): Conv2d(64, 64, kernel_size=(1, 1), stride=(1, 1), bias=False)
    )
    (layer1.0.conv2): SPG(
      (target_module): Conv2d(64, 64, kernel_size=(3, 3), stride=(1, 1), padding=(1, 1), bias=False)
    )
    (layer1.0.conv3): SPG(
      (target_module): Conv2d(64, 256, kernel_size=(1, 1), stride=(1, 1), bias=False)
    )
    (layer1.0.downsample.0): SPG(
      (target_module): Conv2d(64, 256, kernel_size=(1, 1), stride=(1, 1), bias=False)
    )
    (layer1.1.conv1): SPG(
      (target_module): Conv2d(256, 64, kernel_size=(1, 1), stride=(1, 1), bias=False)
    )
    (layer1.1.conv2): SPG(
      (target_module): Conv2d(64, 64, kernel_size=(3, 3), stride=(1, 1), padding=(1, 1), bias=False)
    )
    (layer1.1.conv3): SPG(
      (target_module): Conv2d(64, 256, kernel_size=(1, 1), stride=(1, 1), bias=False)
    )
    (layer1.2.conv1): SPG(
      (target_module): Conv2d(256, 64, kernel_size=(1, 1), stride=(1, 1), bias=False)
    )
    (layer1.2.conv2): SPG(
      (target_module): Conv2d(64, 64, kernel_size=(3, 3), stride=(1, 1), padding=(1, 1), bias=False)
    )
    (layer1.2.conv3): SPG(
      (target_module): Conv2d(64, 256, kernel_size=(1, 1), stride=(1, 1), bias=False)
    )
    (layer2.0.conv1): SPG(
      (target_module): Conv2d(256, 128, kernel_size=(1, 1), stride=(1, 1), bias=False)
    )
    (layer2.0.conv2): SPG(
      (target_module): Conv2d(128, 128, kernel_size=(3, 3), stride=(2, 2), padding=(1, 1), bias=False)
    )
    (layer2.0.conv3): SPG(
      (target_module): Conv2d(128, 512, kernel_size=(1, 1), stride=(1, 1), bias=False)
    )
    (layer2.0.downsample.0): SPG(
      (target_module): Conv2d(256, 512, kernel_size=(1, 1), stride=(2, 2), bias=False)
    )
    (layer2.1.conv1): SPG(
      (target_module): Conv2d(512, 128, kernel_size=(1, 1), stride=(1, 1), bias=False)
    )
    (layer2.1.conv2): SPG(
      (target_module): Conv2d(128, 128, kernel_size=(3, 3), stride=(1, 1), padding=(1, 1), bias=False)
    )
    (layer2.1.conv3): SPG(
      (target_module): Conv2d(128, 512, kernel_size=(1, 1), stride=(1, 1), bias=False)
    )
    (layer2.2.conv1): SPG(
      (target_module): Conv2d(512, 128, kernel_size=(1, 1), stride=(1, 1), bias=False)
    )
    (layer2.2.conv2): SPG(
      (target_module): Conv2d(128, 128, kernel_size=(3, 3), stride=(1, 1), padding=(1, 1), bias=False)
    )
    (layer2.2.conv3): SPG(
      (target_module): Conv2d(128, 512, kernel_size=(1, 1), stride=(1, 1), bias=False)
    )
    (layer2.3.conv1): SPG(
      (target_module): Conv2d(512, 128, kernel_size=(1, 1), stride=(1, 1), bias=False)
    )
    (layer2.3.conv2): SPG(
      (target_module): Conv2d(128, 128, kernel_size=(3, 3), stride=(1, 1), padding=(1, 1), bias=False)
    )
    (layer2.3.conv3): SPG(
      (target_module): Conv2d(128, 512, kernel_size=(1, 1), stride=(1, 1), bias=False)
    )
    (layer3.0.conv1): SPG(
      (target_module): Conv2d(512, 256, kernel_size=(1, 1), stride=(1, 1), bias=False)
    )
    (layer3.0.conv2): SPG(
      (target_module): Conv2d(256, 256, kernel_size=(3, 3), stride=(2, 2), padding=(1, 1), bias=False)
    )
    (layer3.0.conv3): SPG(
      (target_module): Conv2d(256, 1024, kernel_size=(1, 1), stride=(1, 1), bias=False)
    )
    (layer3.0.downsample.0): SPG(
      (target_module): Conv2d(512, 1024, kernel_size=(1, 1), stride=(2, 2), bias=False)
    )
    (layer3.1.conv1): SPG(
      (target_module): Conv2d(1024, 256, kernel_size=(1, 1), stride=(1, 1), bias=False)
    )
    (layer3.1.conv2): SPG(
      (target_module): Conv2d(256, 256, kernel_size=(3, 3), stride=(1, 1), padding=(1, 1), bias=False)
    )
    (layer3.1.conv3): SPG(
      (target_module): Conv2d(256, 1024, kernel_size=(1, 1), stride=(1, 1), bias=False)
    )
    (layer3.2.conv1): SPG(
      (target_module): Conv2d(1024, 256, kernel_size=(1, 1), stride=(1, 1), bias=False)
    )
    (layer3.2.conv2): SPG(
      (target_module): Conv2d(256, 256, kernel_size=(3, 3), stride=(1, 1), padding=(1, 1), bias=False)
    )
    (layer3.2.conv3): SPG(
      (target_module): Conv2d(256, 1024, kernel_size=(1, 1), stride=(1, 1), bias=False)
    )
    (layer3.3.conv1): SPG(
      (target_module): Conv2d(1024, 256, kernel_size=(1, 1), stride=(1, 1), bias=False)
    )
    (layer3.3.conv2): SPG(
      (target_module): Conv2d(256, 256, kernel_size=(3, 3), stride=(1, 1), padding=(1, 1), bias=False)
    )
    (layer3.3.conv3): SPG(
      (target_module): Conv2d(256, 1024, kernel_size=(1, 1), stride=(1, 1), bias=False)
    )
    (layer3.4.conv1): SPG(
      (target_module): Conv2d(1024, 256, kernel_size=(1, 1), stride=(1, 1), bias=False)
    )
    (layer3.4.conv2): SPG(
      (target_module): Conv2d(256, 256, kernel_size=(3, 3), stride=(1, 1), padding=(1, 1), bias=False)
    )
    (layer3.4.conv3): SPG(
      (target_module): Conv2d(256, 1024, kernel_size=(1, 1), stride=(1, 1), bias=False)
    )
    (layer3.5.conv1): SPG(
      (target_module): Conv2d(1024, 256, kernel_size=(1, 1), stride=(1, 1), bias=False)
    )
    (layer3.5.conv2): SPG(
      (target_module): Conv2d(256, 256, kernel_size=(3, 3), stride=(1, 1), padding=(1, 1), bias=False)
    )
    (layer3.5.conv3): SPG(
      (target_module): Conv2d(256, 1024, kernel_size=(1, 1), stride=(1, 1), bias=False)
    )
    (layer4.0.conv1): SPG(
      (target_module): Conv2d(1024, 512, kernel_size=(1, 1), stride=(1, 1), bias=False)
    )
    (layer4.0.conv2): SPG(
      (target_module): Conv2d(512, 512, kernel_size=(3, 3), stride=(2, 2), padding=(1, 1), bias=False)
    )
    (layer4.0.conv3): SPG(
      (target_module): Conv2d(512, 2048, kernel_size=(1, 1), stride=(1, 1), bias=False)
    )
    (layer4.0.downsample.0): SPG(
      (target_module): Conv2d(1024, 2048, kernel_size=(1, 1), stride=(2, 2), bias=False)
    )
    (layer4.1.conv1): SPG(
      (target_module): Conv2d(2048, 512, kernel_size=(1, 1), stride=(1, 1), bias=False)
    )
    (layer4.1.conv2): SPG(
      (target_module): Conv2d(512, 512, kernel_size=(3, 3), stride=(1, 1), padding=(1, 1), bias=False)
    )
    (layer4.1.conv3): SPG(
      (target_module): Conv2d(512, 2048, kernel_size=(1, 1), stride=(1, 1), bias=False)
    )
    (layer4.2.conv1): SPG(
      (target_module): Conv2d(2048, 512, kernel_size=(1, 1), stride=(1, 1), bias=False)
    )
    (layer4.2.conv2): SPG(
      (target_module): Conv2d(512, 512, kernel_size=(3, 3), stride=(1, 1), padding=(1, 1), bias=False)
    )
    (layer4.2.conv3): SPG(
      (target_module): Conv2d(512, 2048, kernel_size=(1, 1), stride=(1, 1), bias=False)
    )
  )
  (classifier): SPGClassifier(
    (last): ModuleDict(
      (All): _TaskHead(
        (classifier): Linear(in_features=2048, out_features=60, bias=False)
      )
    )
  )
)
[2023-09-20 14:52:26 4splitDomains](iBatchLearn.py 58): INFO #parameter of model:23630972
[2023-09-20 14:52:26 4splitDomains](iBatchLearn.py 167): INFO test split name:0
--------------------------------Official Evaluation--------------------------------
0 92.6208651399491
=> merge config from utils/user_4splitDomains.yaml
…
[2023-09-20 14:53:44 10splitTasks](iBatchLearn.py 233): INFO {"cfg": "../official_eva/configs/10splitTasks.yaml", "user_cfg": "utils/user_10splitTasks.yaml", "test": true, "task_count": 0, "init_path": "input/init_models/10splitTasks.pth", "ckpt_path": "model_info/10splitTasks/checkpoint-0.pth", "save_ckpt_path": null, "storage_path": null, "save_storage_path": null, "dest_path": "outputs/2023-09-20-14:52:16/prediction_0.pkl", "suffix": "2023-09-20-14:52:16", "distributed": false, "is_main_process": true}
[2023-09-20 14:53:45 10splitTasks](mytrainer.py 46): INFO => Load model weights: model_info/10splitTasks/checkpoint-0.pth
[2023-09-20 14:53:46 10splitTasks](mytrainer.py 48): INFO => Load Done
[2023-09-20 14:53:51 10splitTasks](iBatchLearn.py 57): INFO ModelSPG(
  (feature_extractor): IncreResNet(
    (conv1): SPG(
      (target_module): Conv2d(3, 64, kernel_size=(7, 7), stride=(2, 2), padding=(3, 3), bias=False)
    )
    (bn1): BatchNorm2d(64, eps=1e-05, momentum=0.1, affine=True, track_running_stats=True)
    (relu): ReLU(inplace=True)
    (maxpool): MaxPool2d(kernel_size=3, stride=2, padding=1, dilation=1, ceil_mode=False)
    (layer1): Sequential(
      (0): Bottleneck(
        (conv1): Conv2d(64, 64, kernel_size=(1, 1), stride=(1, 1), bias=False)
        (bn1): BatchNorm2d(64, eps=1e-05, momentum=0.1, affine=True, track_running_stats=True)
        (conv2): Conv2d(64, 64, kernel_size=(3, 3), stride=(1, 1), padding=(1, 1), bias=False)
        (bn2): BatchNorm2d(64, eps=1e-05, momentum=0.1, affine=True, track_running_stats=True)
        (conv3): Conv2d(64, 256, kernel_size=(1, 1), stride=(1, 1), bias=False)
        (bn3): BatchNorm2d(256, eps=1e-05, momentum=0.1, affine=True, track_running_stats=True)
        (relu): ReLU(inplace=True)
        (downsample): Sequential(
          (0): Conv2d(64, 256, kernel_size=(1, 1), stride=(1, 1), bias=False)
          (1): BatchNorm2d(256, eps=1e-05, momentum=0.1, affine=True, track_running_stats=True)
        )
      )
      (1): Bottleneck(
        (conv1): Conv2d(256, 64, kernel_size=(1, 1), stride=(1, 1), bias=False)
        (bn1): BatchNorm2d(64, eps=1e-05, momentum=0.1, affine=True, track_running_stats=True)
        (conv2): Conv2d(64, 64, kernel_size=(3, 3), stride=(1, 1), padding=(1, 1), bias=False)
        (bn2): BatchNorm2d(64, eps=1e-05, momentum=0.1, affine=True, track_running_stats=True)
        (conv3): Conv2d(64, 256, kernel_size=(1, 1), stride=(1, 1), bias=False)
        (bn3): BatchNorm2d(256, eps=1e-05, momentum=0.1, affine=True, track_running_stats=True)
        (relu): ReLU(inplace=True)
      )
      (2): Bottleneck(
        (conv1): Conv2d(256, 64, kernel_size=(1, 1), stride=(1, 1), bias=False)
        (bn1): BatchNorm2d(64, eps=1e-05, momentum=0.1, affine=True, track_running_stats=True)
        (conv2): Conv2d(64, 64, kernel_size=(3, 3), stride=(1, 1), padding=(1, 1), bias=False)
        (bn2): BatchNorm2d(64, eps=1e-05, momentum=0.1, affine=True, track_running_stats=True)
        (conv3): Conv2d(64, 256, kernel_size=(1, 1), stride=(1, 1), bias=False)
        (bn3): BatchNorm2d(256, eps=1e-05, momentum=0.1, affine=True, track_running_stats=True)
        (relu): ReLU(inplace=True)
      )
    )
    (layer2): Sequential(
      (0): Bottleneck(
        (conv1): Conv2d(256, 128, kernel_size=(1, 1), stride=(1, 1), bias=False)
        (bn1): BatchNorm2d(128, eps=1e-05, momentum=0.1, affine=True, track_running_stats=True)
        (conv2): Conv2d(128, 128, kernel_size=(3, 3), stride=(2, 2), padding=(1, 1), bias=False)
        (bn2): BatchNorm2d(128, eps=1e-05, momentum=0.1, affine=True, track_running_stats=True)
        (conv3): Conv2d(128, 512, kernel_size=(1, 1), stride=(1, 1), bias=False)
        (bn3): BatchNorm2d(512, eps=1e-05, momentum=0.1, affine=True, track_running_stats=True)
        (relu): ReLU(inplace=True)
        (downsample): Sequential(
          (0): Conv2d(256, 512, kernel_size=(1, 1), stride=(2, 2), bias=False)
          (1): BatchNorm2d(512, eps=1e-05, momentum=0.1, affine=True, track_running_stats=True)
        )
      )
      (1): Bottleneck(
        (conv1): Conv2d(512, 128, kernel_size=(1, 1), stride=(1, 1), bias=False)
        (bn1): BatchNorm2d(128, eps=1e-05, momentum=0.1, affine=True, track_running_stats=True)
        (conv2): Conv2d(128, 128, kernel_size=(3, 3), stride=(1, 1), padding=(1, 1), bias=False)
        (bn2): BatchNorm2d(128, eps=1e-05, momentum=0.1, affine=True, track_running_stats=True)
        (conv3): Conv2d(128, 512, kernel_size=(1, 1), stride=(1, 1), bias=False)
        (bn3): BatchNorm2d(512, eps=1e-05, momentum=0.1, affine=True, track_running_stats=True)
        (relu): ReLU(inplace=True)
      )
      (2): Bottleneck(
        (conv1): Conv2d(512, 128, kernel_size=(1, 1), stride=(1, 1), bias=False)
        (bn1): BatchNorm2d(128, eps=1e-05, momentum=0.1, affine=True, track_running_stats=True)
        (conv2): Conv2d(128, 128, kernel_size=(3, 3), stride=(1, 1), padding=(1, 1), bias=False)
        (bn2): BatchNorm2d(128, eps=1e-05, momentum=0.1, affine=True, track_running_stats=True)
        (conv3): Conv2d(128, 512, kernel_size=(1, 1), stride=(1, 1), bias=False)
        (bn3): BatchNorm2d(512, eps=1e-05, momentum=0.1, affine=True, track_running_stats=True)
        (relu): ReLU(inplace=True)
      )
      (3): Bottleneck(
        (conv1): Conv2d(512, 128, kernel_size=(1, 1), stride=(1, 1), bias=False)
        (bn1): BatchNorm2d(128, eps=1e-05, momentum=0.1, affine=True, track_running_stats=True)
        (conv2): Conv2d(128, 128, kernel_size=(3, 3), stride=(1, 1), padding=(1, 1), bias=False)
        (bn2): BatchNorm2d(128, eps=1e-05, momentum=0.1, affine=True, track_running_stats=True)
        (conv3): Conv2d(128, 512, kernel_size=(1, 1), stride=(1, 1), bias=False)
        (bn3): BatchNorm2d(512, eps=1e-05, momentum=0.1, affine=True, track_running_stats=True)
        (relu): ReLU(inplace=True)
      )
    )
    (layer3): Sequential(
      (0): Bottleneck(
        (conv1): Conv2d(512, 256, kernel_size=(1, 1), stride=(1, 1), bias=False)
        (bn1): BatchNorm2d(256, eps=1e-05, momentum=0.1, affine=True, track_running_stats=True)
        (conv2): Conv2d(256, 256, kernel_size=(3, 3), stride=(2, 2), padding=(1, 1), bias=False)
        (bn2): BatchNorm2d(256, eps=1e-05, momentum=0.1, affine=True, track_running_stats=True)
        (conv3): Conv2d(256, 1024, kernel_size=(1, 1), stride=(1, 1), bias=False)
        (bn3): BatchNorm2d(1024, eps=1e-05, momentum=0.1, affine=True, track_running_stats=True)
        (relu): ReLU(inplace=True)
        (downsample): Sequential(
          (0): Conv2d(512, 1024, kernel_size=(1, 1), stride=(2, 2), bias=False)
          (1): BatchNorm2d(1024, eps=1e-05, momentum=0.1, affine=True, track_running_stats=True)
        )
      )
      (1): Bottleneck(
        (conv1): Conv2d(1024, 256, kernel_size=(1, 1), stride=(1, 1), bias=False)
        (bn1): BatchNorm2d(256, eps=1e-05, momentum=0.1, affine=True, track_running_stats=True)
        (conv2): Conv2d(256, 256, kernel_size=(3, 3), stride=(1, 1), padding=(1, 1), bias=False)
        (bn2): BatchNorm2d(256, eps=1e-05, momentum=0.1, affine=True, track_running_stats=True)
        (conv3): Conv2d(256, 1024, kernel_size=(1, 1), stride=(1, 1), bias=False)
        (bn3): BatchNorm2d(1024, eps=1e-05, momentum=0.1, affine=True, track_running_stats=True)
        (relu): ReLU(inplace=True)
      )
      (2): Bottleneck(
        (conv1): Conv2d(1024, 256, kernel_size=(1, 1), stride=(1, 1), bias=False)
        (bn1): BatchNorm2d(256, eps=1e-05, momentum=0.1, affine=True, track_running_stats=True)
        (conv2): Conv2d(256, 256, kernel_size=(3, 3), stride=(1, 1), padding=(1, 1), bias=False)
        (bn2): BatchNorm2d(256, eps=1e-05, momentum=0.1, affine=True, track_running_stats=True)
        (conv3): Conv2d(256, 1024, kernel_size=(1, 1), stride=(1, 1), bias=False)
        (bn3): BatchNorm2d(1024, eps=1e-05, momentum=0.1, affine=True, track_running_stats=True)
        (relu): ReLU(inplace=True)
      )
      (3): Bottleneck(
        (conv1): Conv2d(1024, 256, kernel_size=(1, 1), stride=(1, 1), bias=False)
        (bn1): BatchNorm2d(256, eps=1e-05, momentum=0.1, affine=True, track_running_stats=True)
        (conv2): Conv2d(256, 256, kernel_size=(3, 3), stride=(1, 1), padding=(1, 1), bias=False)
        (bn2): BatchNorm2d(256, eps=1e-05, momentum=0.1, affine=True, track_running_stats=True)
        (conv3): Conv2d(256, 1024, kernel_size=(1, 1), stride=(1, 1), bias=False)
        (bn3): BatchNorm2d(1024, eps=1e-05, momentum=0.1, affine=True, track_running_stats=True)
        (relu): ReLU(inplace=True)
      )
      (4): Bottleneck(
        (conv1): Conv2d(1024, 256, kernel_size=(1, 1), stride=(1, 1), bias=False)
        (bn1): BatchNorm2d(256, eps=1e-05, momentum=0.1, affine=True, track_running_stats=True)
        (conv2): Conv2d(256, 256, kernel_size=(3, 3), stride=(1, 1), padding=(1, 1), bias=False)
        (bn2): BatchNorm2d(256, eps=1e-05, momentum=0.1, affine=True, track_running_stats=True)
        (conv3): Conv2d(256, 1024, kernel_size=(1, 1), stride=(1, 1), bias=False)
        (bn3): BatchNorm2d(1024, eps=1e-05, momentum=0.1, affine=True, track_running_stats=True)
        (relu): ReLU(inplace=True)
      )
      (5): Bottleneck(
        (conv1): Conv2d(1024, 256, kernel_size=(1, 1), stride=(1, 1), bias=False)
        (bn1): BatchNorm2d(256, eps=1e-05, momentum=0.1, affine=True, track_running_stats=True)
        (conv2): Conv2d(256, 256, kernel_size=(3, 3), stride=(1, 1), padding=(1, 1), bias=False)
        (bn2): BatchNorm2d(256, eps=1e-05, momentum=0.1, affine=True, track_running_stats=True)
        (conv3): Conv2d(256, 1024, kernel_size=(1, 1), stride=(1, 1), bias=False)
        (bn3): BatchNorm2d(1024, eps=1e-05, momentum=0.1, affine=True, track_running_stats=True)
        (relu): ReLU(inplace=True)
      )
    )
    (layer4): Sequential(
      (0): Bottleneck(
        (conv1): Conv2d(1024, 512, kernel_size=(1, 1), stride=(1, 1), bias=False)
        (bn1): BatchNorm2d(512, eps=1e-05, momentum=0.1, affine=True, track_running_stats=True)
        (conv2): Conv2d(512, 512, kernel_size=(3, 3), stride=(2, 2), padding=(1, 1), bias=False)
        (bn2): BatchNorm2d(512, eps=1e-05, momentum=0.1, affine=True, track_running_stats=True)
        (conv3): Conv2d(512, 2048, kernel_size=(1, 1), stride=(1, 1), bias=False)
        (bn3): BatchNorm2d(2048, eps=1e-05, momentum=0.1, affine=True, track_running_stats=True)
        (relu): ReLU(inplace=True)
        (downsample): Sequential(
          (0): Conv2d(1024, 2048, kernel_size=(1, 1), stride=(2, 2), bias=False)
          (1): BatchNorm2d(2048, eps=1e-05, momentum=0.1, affine=True, track_running_stats=True)
        )
      )
      (1): Bottleneck(
        (conv1): Conv2d(2048, 512, kernel_size=(1, 1), stride=(1, 1), bias=False)
        (bn1): BatchNorm2d(512, eps=1e-05, momentum=0.1, affine=True, track_running_stats=True)
        (conv2): Conv2d(512, 512, kernel_size=(3, 3), stride=(1, 1), padding=(1, 1), bias=False)
        (bn2): BatchNorm2d(512, eps=1e-05, momentum=0.1, affine=True, track_running_stats=True)
        (conv3): Conv2d(512, 2048, kernel_size=(1, 1), stride=(1, 1), bias=False)
        (bn3): BatchNorm2d(2048, eps=1e-05, momentum=0.1, affine=True, track_running_stats=True)
        (relu): ReLU(inplace=True)
      )
      (2): Bottleneck(
        (conv1): Conv2d(2048, 512, kernel_size=(1, 1), stride=(1, 1), bias=False)
        (bn1): BatchNorm2d(512, eps=1e-05, momentum=0.1, affine=True, track_running_stats=True)
        (conv2): Conv2d(512, 512, kernel_size=(3, 3), stride=(1, 1), padding=(1, 1), bias=False)
        (bn2): BatchNorm2d(512, eps=1e-05, momentum=0.1, affine=True, track_running_stats=True)
        (conv3): Conv2d(512, 2048, kernel_size=(1, 1), stride=(1, 1), bias=False)
        (bn3): BatchNorm2d(2048, eps=1e-05, momentum=0.1, affine=True, track_running_stats=True)
        (relu): ReLU(inplace=True)
      )
    )
    (avgpool): AdaptiveAvgPool2d(output_size=(1, 1))
    (layer1.0.conv1): SPG(
      (target_module): Conv2d(64, 64, kernel_size=(1, 1), stride=(1, 1), bias=False)
    )
    (layer1.0.conv2): SPG(
      (target_module): Conv2d(64, 64, kernel_size=(3, 3), stride=(1, 1), padding=(1, 1), bias=False)
    )
    (layer1.0.conv3): SPG(
      (target_module): Conv2d(64, 256, kernel_size=(1, 1), stride=(1, 1), bias=False)
    )
    (layer1.0.downsample.0): SPG(
      (target_module): Conv2d(64, 256, kernel_size=(1, 1), stride=(1, 1), bias=False)
    )
    (layer1.1.conv1): SPG(
      (target_module): Conv2d(256, 64, kernel_size=(1, 1), stride=(1, 1), bias=False)
    )
    (layer1.1.conv2): SPG(
      (target_module): Conv2d(64, 64, kernel_size=(3, 3), stride=(1, 1), padding=(1, 1), bias=False)
    )
    (layer1.1.conv3): SPG(
      (target_module): Conv2d(64, 256, kernel_size=(1, 1), stride=(1, 1), bias=False)
    )
    (layer1.2.conv1): SPG(
      (target_module): Conv2d(256, 64, kernel_size=(1, 1), stride=(1, 1), bias=False)
    )
    (layer1.2.conv2): SPG(
      (target_module): Conv2d(64, 64, kernel_size=(3, 3), stride=(1, 1), padding=(1, 1), bias=False)
    )
    (layer1.2.conv3): SPG(
      (target_module): Conv2d(64, 256, kernel_size=(1, 1), stride=(1, 1), bias=False)
    )
    (layer2.0.conv1): SPG(
      (target_module): Conv2d(256, 128, kernel_size=(1, 1), stride=(1, 1), bias=False)
    )
    (layer2.0.conv2): SPG(
      (target_module): Conv2d(128, 128, kernel_size=(3, 3), stride=(2, 2), padding=(1, 1), bias=False)
    )
    (layer2.0.conv3): SPG(
      (target_module): Conv2d(128, 512, kernel_size=(1, 1), stride=(1, 1), bias=False)
    )
    (layer2.0.downsample.0): SPG(
      (target_module): Conv2d(256, 512, kernel_size=(1, 1), stride=(2, 2), bias=False)
    )
    (layer2.1.conv1): SPG(
      (target_module): Conv2d(512, 128, kernel_size=(1, 1), stride=(1, 1), bias=False)
    )
    (layer2.1.conv2): SPG(
      (target_module): Conv2d(128, 128, kernel_size=(3, 3), stride=(1, 1), padding=(1, 1), bias=False)
    )
    (layer2.1.conv3): SPG(
      (target_module): Conv2d(128, 512, kernel_size=(1, 1), stride=(1, 1), bias=False)
    )
    (layer2.2.conv1): SPG(
      (target_module): Conv2d(512, 128, kernel_size=(1, 1), stride=(1, 1), bias=False)
    )
    (layer2.2.conv2): SPG(
      (target_module): Conv2d(128, 128, kernel_size=(3, 3), stride=(1, 1), padding=(1, 1), bias=False)
    )
    (layer2.2.conv3): SPG(
      (target_module): Conv2d(128, 512, kernel_size=(1, 1), stride=(1, 1), bias=False)
    )
    (layer2.3.conv1): SPG(
      (target_module): Conv2d(512, 128, kernel_size=(1, 1), stride=(1, 1), bias=False)
    )
    (layer2.3.conv2): SPG(
      (target_module): Conv2d(128, 128, kernel_size=(3, 3), stride=(1, 1), padding=(1, 1), bias=False)
    )
    (layer2.3.conv3): SPG(
      (target_module): Conv2d(128, 512, kernel_size=(1, 1), stride=(1, 1), bias=False)
    )
    (layer3.0.conv1): SPG(
      (target_module): Conv2d(512, 256, kernel_size=(1, 1), stride=(1, 1), bias=False)
    )
    (layer3.0.conv2): SPG(
      (target_module): Conv2d(256, 256, kernel_size=(3, 3), stride=(2, 2), padding=(1, 1), bias=False)
    )
    (layer3.0.conv3): SPG(
      (target_module): Conv2d(256, 1024, kernel_size=(1, 1), stride=(1, 1), bias=False)
    )
    (layer3.0.downsample.0): SPG(
      (target_module): Conv2d(512, 1024, kernel_size=(1, 1), stride=(2, 2), bias=False)
    )
    (layer3.1.conv1): SPG(
      (target_module): Conv2d(1024, 256, kernel_size=(1, 1), stride=(1, 1), bias=False)
    )
    (layer3.1.conv2): SPG(
      (target_module): Conv2d(256, 256, kernel_size=(3, 3), stride=(1, 1), padding=(1, 1), bias=False)
    )
    (layer3.1.conv3): SPG(
      (target_module): Conv2d(256, 1024, kernel_size=(1, 1), stride=(1, 1), bias=False)
    )
    (layer3.2.conv1): SPG(
      (target_module): Conv2d(1024, 256, kernel_size=(1, 1), stride=(1, 1), bias=False)
    )
    (layer3.2.conv2): SPG(
      (target_module): Conv2d(256, 256, kernel_size=(3, 3), stride=(1, 1), padding=(1, 1), bias=False)
    )
    (layer3.2.conv3): SPG(
      (target_module): Conv2d(256, 1024, kernel_size=(1, 1), stride=(1, 1), bias=False)
    )
    (layer3.3.conv1): SPG(
      (target_module): Conv2d(1024, 256, kernel_size=(1, 1), stride=(1, 1), bias=False)
    )
    (layer3.3.conv2): SPG(
      (target_module): Conv2d(256, 256, kernel_size=(3, 3), stride=(1, 1), padding=(1, 1), bias=False)
    )
    (layer3.3.conv3): SPG(
      (target_module): Conv2d(256, 1024, kernel_size=(1, 1), stride=(1, 1), bias=False)
    )
    (layer3.4.conv1): SPG(
      (target_module): Conv2d(1024, 256, kernel_size=(1, 1), stride=(1, 1), bias=False)
    )
    (layer3.4.conv2): SPG(
      (target_module): Conv2d(256, 256, kernel_size=(3, 3), stride=(1, 1), padding=(1, 1), bias=False)
    )
    (layer3.4.conv3): SPG(
      (target_module): Conv2d(256, 1024, kernel_size=(1, 1), stride=(1, 1), bias=False)
    )
    (layer3.5.conv1): SPG(
      (target_module): Conv2d(1024, 256, kernel_size=(1, 1), stride=(1, 1), bias=False)
    )
    (layer3.5.conv2): SPG(
      (target_module): Conv2d(256, 256, kernel_size=(3, 3), stride=(1, 1), padding=(1, 1), bias=False)
    )
    (layer3.5.conv3): SPG(
      (target_module): Conv2d(256, 1024, kernel_size=(1, 1), stride=(1, 1), bias=False)
    )
    (layer4.0.conv1): SPG(
      (target_module): Conv2d(1024, 512, kernel_size=(1, 1), stride=(1, 1), bias=False)
    )
    (layer4.0.conv2): SPG(
      (target_module): Conv2d(512, 512, kernel_size=(3, 3), stride=(2, 2), padding=(1, 1), bias=False)
    )
    (layer4.0.conv3): SPG(
      (target_module): Conv2d(512, 2048, kernel_size=(1, 1), stride=(1, 1), bias=False)
    )
    (layer4.0.downsample.0): SPG(
      (target_module): Conv2d(1024, 2048, kernel_size=(1, 1), stride=(2, 2), bias=False)
    )
    (layer4.1.conv1): SPG(
      (target_module): Conv2d(2048, 512, kernel_size=(1, 1), stride=(1, 1), bias=False)
    )
    (layer4.1.conv2): SPG(
      (target_module): Conv2d(512, 512, kernel_size=(3, 3), stride=(1, 1), padding=(1, 1), bias=False)
    )
    (layer4.1.conv3): SPG(
      (target_module): Conv2d(512, 2048, kernel_size=(1, 1), stride=(1, 1), bias=False)
    )
    (layer4.2.conv1): SPG(
      (target_module): Conv2d(2048, 512, kernel_size=(1, 1), stride=(1, 1), bias=False)
    )
    (layer4.2.conv2): SPG(
      (target_module): Conv2d(512, 512, kernel_size=(3, 3), stride=(1, 1), padding=(1, 1), bias=False)
    )
    (layer4.2.conv3): SPG(
      (target_module): Conv2d(512, 2048, kernel_size=(1, 1), stride=(1, 1), bias=False)
    )
  )
  (classifier): SPGClassifier(
    (last): ModuleDict(
      (0): _TaskHead(
        (classifier): Linear(in_features=2048, out_features=10, bias=False)
      )
      (1): _TaskHead(
        (classifier): Linear(in_features=2048, out_features=10, bias=False)
      )
      (2): _TaskHead(
        (classifier): Linear(in_features=2048, out_features=10, bias=False)
      )
      (3): _TaskHead(
        (classifier): Linear(in_features=2048, out_features=10, bias=False)
      )
      (4): _TaskHead(
        (classifier): Linear(in_features=2048, out_features=10, bias=False)
      )
      (5): _TaskHead(
        (classifier): Linear(in_features=2048, out_features=10, bias=False)
      )
      (6): _TaskHead(
        (classifier): Linear(in_features=2048, out_features=10, bias=False)
      )
      (7): _TaskHead(
        (classifier): Linear(in_features=2048, out_features=10, bias=False)
      )
      (8): _TaskHead(
        (classifier): Linear(in_features=2048, out_features=10, bias=False)
      )
      (9): _TaskHead(
        (classifier): Linear(in_features=2048, out_features=10, bias=False)
      )
    )
  )
)
[2023-09-20 14:53:51 10splitTasks](iBatchLearn.py 58): INFO #parameter of model:23712832
[2023-09-20 14:53:51 10splitTasks](iBatchLearn.py 167): INFO test split name:0
--------------------------------Official Evaluation--------------------------------
0 81.2
=> merge config from utils/user_10splitTasks.yaml
=> merge config from ../official_eva/configs/10splitTasks.yaml
…
